best_model.pth (torch, 19746 bytes, 15 tensors)

fc1.weight f4 [64, 6]
00000000: 2598 983e d85f 653e 7c9f ab3d 104e 0dbe
00000010: 1f1b 883e daf7 9e3e 919f dfbc 9fdf 00bf
00000020: 52db 2f3e 771c 783e 298f 993e 71f7 8ebe
00000030: ac4a b6be 0215 213e 26a5 e43c f8ce 823e
00000040: 028e 9c3d 2a5c c43e 363a aebd a68f b43d
00000050: 1695 c13e 6533 56be b2c1 453e 30eb b1be
00000060: 3980 bcbd 6d0a ab3c 4c74 de3c ed4c 34bb
00000070: 9ff8 e23d 550c e9be e834 1fbe 44db 073f
00000080: 9020 0abc 278a 0dbe 952f 6e3d e150 fe3d
00000090: 3660 643d ef65 f13e 1fe8 fc3d 961e 5b3d
000000a0: d021 ee3c d56d 393e 3de9 90be 3f79 a1bd
000000b0: d437 a2bc a39d d13d 2aa4 c7be c47d 42bd
000000c0: ca00 dc3c b252 bdbe ebf9 78be 4599 613e
000000d0: 5665 37bd 2520 5cbe 7618 0c3d 42d9 573e
000000e0: 8adc 413d e82d 39be 01df 37bd f905 f1bd
000000f0: 7faa ae3b 20d3 dd3b 32d8 6fbe 550b fb3d
00000100: d3af a43d 10c7 b1bd 8220 2e3e 9866 51bd
00000110: 57f7 7dbe db11 83be ef69 05bc eff1 9cbe
00000120: 399f 45bd 7028 bc3e 7fb3 babd 3f9b c23d
00000130: 5283 bfbd f2a3 3f3e 99f6 b13d 51a6 98be
00000140: b04e 51be 9aac 05be 4e1d 59be e139 eebd
00000150: 32eb cebd 909a c8be 5dae b83d 6025 dcbe
00000160: 9d40 c1be 0270 7bbe 2aa3 d73e 336f b53e
00000170: b024 6f3e cf84 40be bfc0 9b3e 08ca a73d
00000180: 7a0d d5be e583 51be 80ab 98be a47d 663e
00000190: 9fe0 d43e 0c52 6cbe 3073 c03e f5f7 24be
000001a0: c5be f73b 4136 d7bc 5834 663d f83c ccbd
000001b0: f1a2 9fbd 2a78 c13e cf5c b7be 53eb 123e
000001c0: 8a06 163e 411f 8abd 1cf6 863d 587f 653e
000001d0: d672 4a3d 6fdb ddbe af3e 633e 3ecb d4bc
000001e0: 7167 803e 3cd2 213e e797 82be 41ca a0be
000001f0: 7d21 923d a87b 593d de3c d3bd 76a2 803d
00000200: b39b 1cbd c8ad 873c c1ee aebe a0b3 bdbe
00000210: 4a50 69be 4b12 6bbe a8b9 97bd dc81 b9bd
00000220: 3406 813e 0879 6d3e 70be afbe c999 2c3e
00000230: 22c1 2d3d 33ff 2cbe 093e 68be 0663 8c3e
00000240: 9759 14bc b77c 6dbe 3df4 90bd d5c5 87be
00000250: 3cfb 433e 69c0 b1be 77b8 e73d 8873 273e
00000260: 4d05 aa3d 51e6 613e f65e a1bd c87d db3d
00000270: ebb2 9a3e 7c83 963e 8be5 b43e 8abb e53e
00000280: 12ff bcbd 858e 543e 0d63 80be d2fe 9a3e
00000290: 300f cbbe 4d9d 9fbe df53 48be 1089 25bb
000002a0: 7000 903e ba9c 373e 5654 893e 8f5d 57bc
000002b0: 16e5 313e 606d 023e dd01 72be 4dd3 adbe
000002c0: 4de3 4fbd 3a9e c4be eeea 21be c8c6 55be
000002d0: 8580 2c3e 5a0d af3e 2208 aabd 62f0 6cbe
000002e0: 2731 c1be 0f4a 4c3e fb5c 943e 09a8 be3e
000002f0: 7b69 1bbe a1a8 c0bc a2d1 82be d6fc 973e
00000300: 8ab9 93be f82b 823e cee1 d239 d4af a13d
00000310: e5a4 c5be 9867 adbd c65e 093e 6c4f 153e
00000320: 7787 b0be 06cd ea3e 1dbd 323d 3cfb 223e
00000330: 7eae acbe 87bf ba3d 1801 64be ddfb 30be
00000340: 9cf7 2f3e e9c6 9f3e 4c38 bf3e a59f 34be
00000350: a156 a6bd 6467 c13e 79c6 1f3e 289e 393e
00000360: 1340 f73e 3114 adbe 6c05 84be fdfd ab3e
00000370: 1b51 803e 378a eb3b 2d8f b03e a41e d8be
00000380: 717b 533d 3b81 d6be 6954 86be 25e4 4d3e
00000390: 8a34 5ebe f59b df3e fc38 363d aeb4 d33d
000003a0: 65d7 863d a886 aebe 0848 993e e275 95be
000003b0: d5d9 38be 1a50 193e bec2 b7be 42dd 9c3e
000003c0: 69c5 53bc ad9e 973e 56e8 513e 2f97 f5be
000003d0: 4a89 e7bd a01f 3cbe e897 743e 517f 933e
000003e0: d47a c23e ddd6 acbe 87d8 cbbd be0a 7cbe
000003f0: 54b9 b23e 2b2a dcbc 9e1b 353d 24b0 f23d
0.29803577 0.22399843 0.083800286 -0.1379931 0.26583192 0.3104847 -0.027297767 -0.5034122
0.17173508 0.24229608 0.29992035 -0.27923158 -0.35603845 0.1573067 0.02791078 0.2554853
0.07644273 0.38351566 -0.085071966 0.08816461 0.37809056 -0.20918043 0.1931217 -0.34749746
-0.09204144 0.020878995 0.027155064 -0.0027511672 0.11082577 -0.4551722 -0.15547526 0.5306895
-0.008430615 -0.13822232 0.058150847 0.1241777 0.055755816 0.47148082 0.12348961 0.053495966
0.029068857 0.18108304 -0.28302947 -0.07884454 -0.019802012 0.10235145 -0.38992435 -0.04748322
0.026855845 -0.36977154 -0.24314086 0.22031124 -0.044774376 -0.21496637 0.034203015 0.21078971
0.047329463 -0.18083918 -0.044890407 -0.11768717 0.0053303833 0.006769553 -0.23422316 0.12258021
0.08041348 -0.08680546 0.17004588 -0.05112323 -0.24801384 -0.2559956 -0.008142932 -0.3065333
-0.04824755 0.367496 -0.091162674 0.09502267 -0.09351219 0.18714884 0.08689613 -0.2981439
-0.20440173 -0.13054124 -0.21202585 -0.11632133 -0.10103454 -0.39180422 0.09017632 -0.42997265
-0.3774461 -0.24554446 0.42116672 0.354364 0.23353839 -0.18800662 0.3042049 0.08192831
-0.41611844 -0.2046047 -0.29818344 0.22508866 0.41577622 -0.23078173 0.3758788 -0.16110213
0.0075605833 -0.026270987 0.056202263 -0.09972566 -0.077947505 0.3778699 -0.35812995 0.14347582
0.14650932 -0.067442425 0.065899104 0.22411859 0.049425922 -0.43331477 0.2219188 -0.02597582
0.2507892 0.15802854 -0.25506517 -0.31404307 0.07135294 0.053096443 -0.10314344 0.06280987
-0.038234424 0.016562358 -0.3416653 -0.37051105 -0.22784534 -0.22956197 -0.07408458 -0.09057972
0.25200045 0.23190701 -0.3432498 0.1685554 0.042420514 -0.16894226 -0.22679915 0.274193
-0.009054563 -0.23192106 -0.07077835 -0.2651812 0.19138807 -0.3471711 0.11314481 0.16352665
0.08301792 0.22060515 -0.078794405 0.1071735 0.3021463 0.2939719 0.35331377 0.44869643
-0.09228338 0.20757492 -0.2507557 0.30272537 -0.39660025 -0.31174698 -0.19563244 -0.0025258698
0.28125334 0.1793088 0.26822156 -0.013144865 0.17372546 0.12737036 -0.23633523 -0.33950272
-0.05075388 -0.38401967 -0.15812275 -0.2087661 0.16845901 0.34189874 -0.083023325 -0.23138574
-0.37732813 0.19950126 0.28977188 0.37237576 -0.15176956 -0.023517909 -0.25550562 0.29685086
-0.28852493 0.2542417 0.0004022256 0.07894865 -0.38602367 -0.084670246 0.1341506 0.14581078
-0.3447835 0.45859545 0.043637384 0.15916151 -0.33726877 0.09118562 -0.22266042 -0.17283578
0.17184299 0.31206444 0.3734764 -0.17639025 -0.08121992 0.37774193 0.15603055 0.18126738
0.48291072 -0.33804467 -0.25785387 0.33592215 0.2506188 0.0071881074 0.34484234 -0.42210877
0.051631395 -0.4189547 -0.26236275 0.20106561 -0.2169973 0.43673673 0.04448794 0.10337196
0.06584052 -0.3408711 0.29937768 -0.291915 -0.18051846 0.14971963 -0.35890764 0.30637556
-0.012925484 0.29613248 0.20498785 -0.47966906 -0.11305483 -0.18371439 0.23886073 0.28808072
0.37984335 -0.33757678 -0.09953409 -0.24613473 0.3490702 -0.026875576 0.04421579 0.118500024

fc1.bias f4 [64]
00000000: b571 5d3c 6341 343a 0a43 8ab6 54aa 0b36
00000010: 67ce 5236 cfca 9ab9 6853 f0b7 45e3 42b7
00000020: 05c5 7236 d0cd 8736 ae77 1138 6fe9 3037
00000030: 02fb 00bb 62d4 c836 9090 213b a9d1 70b6
00000040: 69e8 0a3c c8a8 7ab7 3946 e8bb b579 3a3c
00000050: a57e 2e34 51f6 f53b 9cae 1a3c 396d 3c3c
00000060: a347 a035 69f5 0e37 7d3e febb 405f 293c
00000070: c67f ff39 043b 9cb7 c808 8f3c 2d94 e4ba
00000080: 419d f23b 4829 5436 2238 5dbb 5248 3636
00000090: 1265 a1b6 a6c6 c0b5 ddea 2934 530f 1837
000000a0: 36ca e7b6 2ab6 2c36 0fd6 b137 d80c 5b39
000000b0: 5f89 16b7 6c1c 9fb6 e23a 2236 d943 7d38
000000c0: 3185 5db6 8ec7 cc37 5ce5 003b a485 8736
000000d0: ab6f 99b6 391c ea34 854b 8b36 9e63 7839
000000e0: cf17 e135 e0cc fd36 9170 d4b6 daba 953b
000000f0: 4bdf ad3b 9dcd d43b c41f c7b7 7a46 fc36
0.013515879 0.00068761985 -4.120525e-06 2.0811758e-06 3.141258e-06 -0.00029524273 -2.8649069e-05 -1.1616216e-05
3.617549e-06 4.0472733e-06 3.4682154e-05 1.0544768e-05 -0.0019680862 5.985189e-06 0.0024652816 -3.5884825e-06
0.008478262 -1.4940459e-05 -0.0070884493 0.011381556 1.6251086e-07 0.00750617 0.009441044 0.01150065
1.1941778e-06 8.520999e-06 -0.007758914 0.010337651 0.0004873259 -1.862413e-05 0.017460242 -0.0017439179
0.007404 3.161449e-06 -0.0033755382 2.716221e-06 -4.80994e-06 -1.4362929e-06 1.5824794e-07 9.063474e-06
-6.907877e-06 2.573603e-06 2.1199723e-05 0.00020890252 -8.972681e-06 -4.741878e-06 2.4174155e-06 6.038309e-05
-3.3009094e-06 2.441162e-05 0.001966796 4.0388713e-06 -4.572755e-06 4.360643e-07 4.1513144e-06 0.00023688233
1.6770736e-06 7.563838e-06 -6.331197e-06 0.0045693936 0.0053061596 0.0064942376 -2.373744e-05 7.51839e-06

fc2.weight f4 [32, 64]
00000000: f1e8 5b3d d3c1 0b3d 5a96 ed3c df74 f4bd
00000010: 65c5 183d cc18 dabd 4c1f d0bd b855 a7bc
00000020: 4b00 2ebd 2625 40bd 29e3 803b 58aa 293d
00000030: 47cf 423d 1f53 ea3d 8254 aabc 2ad3 053d
00000040: 10be 863d 3519 843d c9ef 3c3d 38a4 0abd
00000050: 63f1 463d f086 16be d039 b7bc f461 943d
00000060: ba5b 0abd e56e 20be 1177 03be cb97 2b3d
00000070: 47f6 e73c fad0 3fbd 571d 8cbc 6117 84bd
00000080: 28d7 4cbd 4e55 91bd 966f 193e 48cc a6bd
00000090: 13b4 71bd 4634 f23d 8599 f03c 6fe7 a1bd
000000a0: 7589 443c c9e8 08be 8802 dbbd 30dc 073d
000000b0: 4408 43bc b10a e23d 67d0 bfbd 3007 073d
000000c0: a9bd e2bd 542f 673c 7c29 96bb ea68 1c3d
000000d0: cebc bfbd cf59 2ebe d30a fbbd 2c24 f1bd
000000e0: be5b 06bd 8ee5 a53d 2759 7bbe 29fc 483d
000000f0: 8de3 e1bd 3625 b33d 5532 553c 3086 95bd
00000100: af1c c2bd 61a0 61bb ff26 143d 994f 56bd
00000110: 0d7e 23bd 31ed 263b 64ed 3fbd d944 ebbd
00000120: 4a09 0ebd 8b9f 8e3d 37b8 f6b7 93fe 5dbd
00000130: 0a21 8f3c d2e7 d4bd aabf 2e3d 60aa eabd
00000140: 9165 83bc 3786 98bd 728a d1bc 37b2 02be
00000150: 3f83 7fbd 2a4b 55bb 508e 073e eca7 d7bd
00000160: 84a7 17be 2292 ec3c aa91 b0bc 54ab 223e
00000170: 8264 ddbd 198b 813d 3746 3dbd c470 f43c
00000180: 746c 403d fd42 3ebd acca 3abe d0f9 8abc
00000190: 0401 aabd 2745 0bbe b659 a6bc 0daa afbd
000001a0: 48b6 bbbc d2ad 403d 5f1d ddbc 72aa 60bd
000001b0: db2f 9fbd d4b9 833d fb46 873d 31e4 a9bd
000001c0: d446 5e3d 48ef efbd ec66 07be 15cf c9bd
000001d0: e104 e0bd a426 28bd 04d6 c73c f54b 1dbe
000001e0: fe98 753c faea 883d c523 923d a3bc e4bd
000001f0: 38d6 19bd b343 d63d 469b 16be 8d6e 21be
00000200: b968 9fbd 0b14 ba3b 3fa5 a6bc 79de 0e3d
00000210: 42a3 d6bd ede5 91bd edb4 ddbd e3c8 febc
00000220: c0bd 403c ab38 c5bd b6cf 9dbc ecc7 933d
00000230: 51b8 ebbd 5134 613c 21d3 c43d 81d2 c4bd
00000240: ad1c 823d 5d97 f5bd 3b35 d4bd 3cf4 8ebd
00000250: d12b 283d 6360 1d3e 3b8b 203e 47d6 28bd
00000260: 497f 6dbd 266a 1dbd d68b 1ebd e49a 503d
00000270: 3e6b d6bd e897 7bbc fca8 47bd 8803 37bc
00000280: 1575 1fbd b8ec 5cbd 6fb0 3a3b f878 e1bc
00000290: 1c4d b3bd 5e47 6d3d 8906 56bd 3b2d 9cbd
000002a0: d62f d5bd 0c03 953c 6e40 f3bd e414 1abd
000002b0: 6d3c 853c 7fc2 17bd 3ec5 a23d 10b7 5bbd
000002c0: 8203 9ebd ed75 dabd b690 09be 4a64 a4bd
000002d0: 8c46 f63d 3cb3 473d 9fcb 273d b62c e13c
000002e0: 5924 b7bd 258e b2bd 3588 c9bd 517f 123e
000002f0: c680 0cbb 4621 82bd 81fe b43c 7e0f f3ba
00000300: d5cd 623d 82ea 293c fc90 3e3d 6eff 083d
00000310: 69c0 20bc 8419 7ebd c8ec 52bd 21e4 083e
00000320: 8ba1 df3c 6564 e1bd 01e6 3bbd 2664 683d
00000330: 2306 efbd cd9b bdbd 0349 473d fa5a d0bc
00000340: eaed fb3d b404 c7bd e3c5 97bd 0d68 6cbd
00000350: 5803 63bd 9a09 27bc 3002 403e ee99 4439
00000360: 65ed 32bc dbeb d3bd e2ff cabd 0cec 06be
00000370: 1d37 0dbe 694a 203e c1a8 b23d 74a0 27bd
00000380: 3fd5 01bd abbb 88bc 498c d63d 1576 afbc
00000390: 0098 aabb f9c8 b93d f979 60bd cb11 4d3d
000003a0: e440 36b8 8658 debd 725d 82bc 0b76 15be
000003b0: cc83 363d 63c9 1abe 92a8 30bd 882a d03d
000003c0: 7389 ba3c 9e7d 95b9 927f 94bb 5eb6 16bd
000003d0: 0f4c a03d 657a 0dbd 03e5 c0bc ac19 f33d
000003e0: f859 69bd c217 93bc 8e5a 17be e7bd a73b
000003f0: 9be5 e8bd c207 3fbd 3b04 23be cf40 17be
0.053688947 0.034120392 0.029002357 -0.11936354 0.037297625 -0.10649261 -0.101622194 -0.020426616
-0.04248075 -0.046910428 0.0039333296 0.041422218 0.047560956 0.11441635 -0.02079225 0.032672085
0.0657922 0.0645012 0.046127114 -0.033848017 0.048570048 -0.14699912 -0.022366434 0.072452456
-0.033778884 -0.15667303 -0.12838389 0.041892808 0.028315676 -0.046830155 -0.017103834 -0.06449772
-0.050009876 -0.07096349 0.14983973 -0.08144432 -0.059009623 0.118263766 0.029370079 -0.079054706
0.011995663 -0.1337005 -0.10693842 0.03316897 -0.011903826 0.110371955 -0.093659215 0.03296584
-0.11071331 0.014110405 -0.004582582 0.03818599 -0.093621835 -0.17026447 -0.12257924 -0.11774477
-0.032802336 0.08100425 -0.24545728 0.049068604 -0.1102973 0.08747332 0.013012488 -0.07300985
-0.09478127 -0.0034427869 0.036170002 -0.052322004 -0.039915133 0.0025470967 -0.046857253 -0.11487741
-0.034676827 0.06964024 -2.9411267e-05 -0.05419786 0.017471809 -0.10395779 0.042663254 -0.11458278
-0.016039642 -0.074474744 -0.025578711 -0.12763296 -0.062381025 -0.0032546022 0.13237882 -0.105300754
-0.14809996 0.028878275 -0.021553833 0.15885669 -0.10810186 0.06325359 -0.04620954 0.029838927
0.04697843 -0.046450604 -0.18241376 -0.016964823 -0.08300975 -0.13600598 -0.02030645 -0.085773565
-0.022914067 0.047040768 -0.026991544 -0.05485005 -0.077727996 0.06431928 0.06605335 -0.08295477
0.054266766 -0.11715561 -0.13222855 -0.09853951 -0.109384306 -0.041052476 0.024394043 -0.15361007
0.014990089 0.06685443 0.07135729 -0.11168792 -0.03755781 0.10462131 -0.1470767 -0.15764828
-0.07783646 0.005678659 -0.020342467 0.034880135 -0.10480358 -0.07123933 -0.108255245 -0.03110165
0.01176399 -0.09629949 -0.019264083 0.072158664 -0.11509765 0.013745383 0.09610582 -0.09610463
0.06353126 -0.11991761 -0.103617154 -0.06980178 0.04105741 0.153688 0.15678112 -0.041219976
-0.057982717 -0.03843131 -0.038707577 0.050928965 -0.104696736 -0.0153560415 -0.04874514 -0.0111702755
-0.038930018 -0.05393669 0.002848651 -0.027523503 -0.08754942 0.05792939 -0.052252326 -0.076258145
-0.104095146 0.01818993 -0.11877523 -0.03761758 0.016264165 -0.03705072 0.07947777 -0.05364138
-0.07715513 -0.10667024 -0.13434109 -0.08026941 0.120251745 0.048754916 0.040965673 0.02748714
-0.0894248 -0.08718518 -0.098404326 0.1430638 -0.002143906 -0.06354003 0.022094013 -0.0018544046
0.055372078 0.010370852 0.046524987 0.03344672 -0.009811499 -0.062036052 -0.051495343 0.13368274
0.02729871 -0.11005477 -0.045873646 0.056736134 -0.11671092 -0.09258232 0.048653614 -0.025434006
0.12301238 -0.09717694 -0.07410791 -0.057716418 -0.05542311 -0.01019516 0.18750834 0.0001874936
-0.010920857 -0.1034772 -0.09912087 -0.13175982 -0.13790555 0.15653385 0.087235935 -0.040924504
-0.031697508 -0.01669105 0.10475976 -0.02141861 -0.005206108 0.090715356 -0.054803822 0.050065797
-4.3452616e-05 -0.10856728 -0.015913699 -0.14595811 0.044559285 -0.15115885 -0.04312951 0.10164362
0.022770619 -0.00028513087 -0.004531809 -0.036795013 0.07827007 -0.034540553 -0.023546701 0.11870131
-0.056970567 -0.017955665 -0.14780638 0.0051190737 -0.11371919 -0.046638258 -0.15919583 -0.14770816

fc2.bias f4 [32]
00000000: 5609 1837 7315 a337 3669 81b5 f1c6 a135
00000010: e4b0 cab7 db64 a435 b9a0 b8b6 e471 f3b5
00000020: ac70 0db5 239a c136 fcb1 8b37 3246 4eb7
00000030: 3180 c6b5 1eea 67b7 953d a834 c809 9436
00000040: b068 14b6 6367 83b6 b863 5cb6 f8df a1b6
00000050: 254e 98b6 6ba6 17b6 c5ca 1f37 87e8 5bb6
00000060: 6e82 4437 8f79 2eb7 52aa 40b5 1f7e 6fb7
00000070: 06aa 3db7 3c62 9f36 4fbd 0b35 3972 8937
9.06208e-06 1.9441102e-05 -9.641869e-07 1.2053334e-06 -2.4162648e-05 1.2248305e-06 -5.502338e-06 -1.8138057e-06
-5.269055e-07 5.769792e-06 1.6652972e-05 -1.22949e-05 -1.4789458e-06 -1.3823183e-05 3.1337245e-07 4.4118824e-06
-2.2114655e-06 -3.91614e-06 -3.2840599e-06 -4.8242473e-06 -4.53905e-06 -2.2597621e-06 9.5243495e-06 -3.2768892e-06
1.1712878e-05 -1.0399511e-05 -7.177342e-07 -1.4274875e-05 -1.13048645e-05 4.7500052e-06 5.2057015e-07 1.6384862e-05

fc3.weight f4 [16, 32]
00000000: 2be2 033d d446 be3c db93 b03d bfdc 963e
00000010: 274a f93c 42cb 4d3e 7d23 59bd de10 613e
00000020: 88fa 693e bf9e 7a3e e757 733e 82e1 223e
00000030: 1646 d83d 852a 8d3e 78aa aabd 7375 d7bd
00000040: 2305 603e 8d63 1a3e a0ef 603e 580b 613c
00000050: e39f c03d 29b5 473e de95 973d a82f 3c3e
00000060: 95af 843e 51f7 50bd 1f22 8a3d 6695 263e
00000070: b61b 5e3e 5a7e cdbd 9f2d 66bd 4fe6 243e
00000080: 81d9 893e 6523 793e 4488 4c3e bc63 453e
00000090: 29ac 2fbe 7c6e b83d 8cd7 103d 3ea9 ee3d
000000a0: 416e 183e bb2e 003e aa8c d33c 4a21 d53d
000000b0: c02b 2b3e 18ad 803d 6654 7b3d 3886 923d
000000c0: 3e20 be3d 335c 823e 1721 483e 3483 1d3d
000000d0: bab3 aa3e 9f24 7e3e c4ab 5d3e 0dd9 033e
000000e0: 51e7 ec3d 6970 7b3e 87ee 263e 18e1 793e
000000f0: a4a8 8b3e 0a66 563d f667 80bc 5e01 bf3d
00000100: 6a4f e5bd ff48 04bc b2a4 30be cc9b d43d
00000110: 6166 ce3d 0877 6c3d 58af 913e dcf8 46be
00000120: e986 b4bd 5b04 f9bc d35a 213d 8962 d23c
00000130: 28c9 e9bd 68c3 e9bd bc07 043e b441 693d
00000140: da69 b2bd 44e9 3abe 1210 30bc b24a 143e
00000150: 253a 4fbe 28b3 0abb d07c abbd 5442 ea3d
00000160: 1944 69bd 6789 68bd 8dc7 fcbd 5754 b7bd
00000170: 6a3f 35be 9451 023e d362 253e 8fb3 763c
00000180: a15d 1d3e 6a06 0c3e c856 c13d 1905 ee3d
00000190: 3121 b8bd 0717 833d 35b7 6bbd 1d17 663d
000001a0: e508 a03e 93de 963e 3158 8d3e e652 153e
000001b0: b222 4f3e a6a8 9f3e 1835 71bd 625c 2bbd
000001c0: 4928 9d3e 5dc9 db3d ceb2 3a3d 2c6e a23d
000001d0: 5bef 7e3d aad5 1b3e 23c1 a23c 2978 963e
000001e0: 1d36 723e 7f34 d03d cf8e f03c 02ed 6f3e
000001f0: f398 f23d 9023 b8bd afc4 3f3e e9cc 2f3d
00000200: 47d0 1fbe c0b5 28be 4d8f 42be 17bb 993d
00000210: 60e4 f5bd 4c98 9b3c a9a9 91bc e5e9 a13d
00000220: dfe5 0d3e d2cd 19be 43a6 2abb c2e7 06be
00000230: 2d9b acbb a8a8 9e3d bb80 0abe 076c 7a3b
00000240: 19b4 08bd 6605 a73c 8bc4 883d e4bb e4bd
00000250: b389 963d 0dc9 a53d 9600 c23d c623 c2bd
00000260: 945c 3fbe 0966 f33d 6c6c d3bd 882d 1a3d
00000270: 24ef 5cbe fcd2 9abd a054 1e3d 626c 3abe
00000280: 2e51 993e 0d4a 6dbc 2174 a23e 7739 153e
00000290: ad8c eb3c 206d f2bc be7d 31be 7e7b 573d
000002a0: 3ee1 043d 6342 c23d 25a1 043d 1f67 283e
000002b0: 115a 8c3d 1769 743e 0889 dabd f325 dd3d
000002c0: 0602 d9bc f817 a13e 2e6b 393e e6f6 333e
000002d0: 37dd 273d 42b0 443c 6285 0d3e e9ca 343e
000002e0: 989f 693e 5305 563d 8714 683e e1ef 663e
000002f0: 182a 133e 758b 0a3e 9116 86bc 9ded fb3d
00000300: bb82 993e 896b 9d3e 48d2 823e 7a5f a73e
00000310: eab0 eebc 954d a73c 34da b63d 5848 8d3e
00000320: d633 923d d1e4 5c3d 03c7 ae3e 4a91 563d
00000330: 37cf 783e b7d2 a33d 4341 fcbd 4537 f1bc
00000340: deb5 4c3e 1c99 d13d 1802 fd3c 291b 0ebc
00000350: b9e7 943e fc35 153d 61b0 083d 554c 283e
00000360: 5d70 693e e486 6e3e 73c1 883d f10a 6a3d
00000370: bb86 a63e 7fa6 acbd e155 d03c 7060 953e
00000380: 7343 1e3e 3b44 493c e8f6 2e3c a4e4 9c3e
00000390: 5f55 513c 95da 723e 3413 a43d 69fe 893e
000003a0: 9e60 5e3e 8f8e 803e 3de5 673e 3cb3 413d
000003b0: ac90 773e 713e 333d a85e 713c 19c9 d23b
000003c0: 2197 8a3d ec28 a3bc a5d2 883e 8f3b 943d
000003d0: 9ed4 923e cb07 33bd b620 7f3e 81c5 6fbd
000003e0: cb5e c63d 6c1e adbc ada7 423d 3af6 b63d
000003f0: 1713 423e 6512 dabd cb5b 5a3c 06f0 1f3e
0.032198112 0.023227133 0.08621951 0.2946529 0.030430866 0.20097068 -0.05301236 0.2197909
0.22849476 0.2447462 0.23764001 0.15906337 0.10560243 0.27571502 -0.083332956 -0.105204485
0.2187696 0.15077038 0.2196641 0.013735615 0.09405496 0.19502701 0.07401632 0.18377554
0.25915208 -0.05101711 0.06744789 0.16267928 0.21690258 -0.10033865 -0.05619585 0.16103481
0.26923755 0.24329908 0.19973856 0.19276327 -0.17155518 0.09005448 0.03536181 0.11653374
0.14885809 0.12517826 0.02582391 0.1040674 0.16715908 0.06283015 0.061359785 0.071545064
0.092834935 0.25460967 0.19543873 0.038455203 0.33340245 0.24818657 0.21647555 0.12875767
0.115675576 0.245546 0.16301928 0.24402273 0.272771 0.052343406 -0.015674572 0.09326433
-0.11196788 -0.008074044 -0.17250326 0.103812784 0.10078121 0.057730705 0.2845409 -0.1943087
-0.088147946 -0.030397585 0.039393257 0.02568175 -0.11415321 -0.11414224 0.12893575 0.056947425
-0.08711596 -0.18253046 -0.010746019 0.14481619 -0.20237024 -0.0021163914 -0.083734155 0.11438432
-0.05694971 -0.056771662 -0.12342749 -0.089516334 -0.17699972 0.12726432 0.1615098 0.015057459
0.15367748 0.13674322 0.0944038 0.11622066 -0.08990706 0.064008765 -0.057547767 0.056174386
0.31256786 0.29466686 0.27606347 0.14582404 0.20228079 0.31183356 -0.058888525 -0.04183615
0.30694798 0.107317664 0.045580678 0.0793117 0.062239986 0.15218225 0.019867485 0.2938855
0.23653455 0.10166263 0.029364971 0.23430255 0.11845579 -0.08991158 0.18727373 0.042920027
-0.15606795 -0.16475582 -0.18999977 0.07506388 -0.1200645 0.01899352 -0.017781096 0.0790594
0.1385722 -0.1501992 -0.002603904 -0.13174346 -0.005267522 0.077470124 -0.1352567 0.0038211362
-0.03337488 0.020388316 0.066781126 -0.1116865 0.07350483 0.08094988 0.09472768 -0.094794795
-0.1868766 0.11884696 -0.10323414 0.03764108 -0.215756 -0.07559773 0.038654923 -0.18205407
0.29944748 -0.014482987 0.31729224 0.14572702 0.028753603 -0.02959305 -0.17333123 0.052608006
0.03244137 0.094853185 0.032380242 0.16445588 0.06853116 0.23868214 -0.10670668 0.10798254
-0.026490223 0.314636 0.18107292 0.17574653 0.04098245 0.012004914 0.13820413 0.17655529
0.22814786 0.05225117 0.2266408 0.22552444 0.14371526 0.13529761 -0.016368182 0.123011805
0.29982552 0.30746105 0.25551057 0.3269003 -0.029137094 0.020422736 0.08928338 0.27594256
0.07138793 0.053929154 0.3413621 0.052384652 0.24297796 0.07999175 -0.12317135 -0.0294453
0.19991252 0.102342814 0.030884787 -0.008673468 0.2908304 0.036428437 0.033371333 0.16435368
0.2279677 0.23293644 0.066775225 0.05713934 0.32524666 -0.08430194 0.025431575 0.29175138
0.15455417 0.012284334 0.010678984 0.3064319 0.012776702 0.23716195 0.08011475 0.26951912
0.21716544 0.25108764 0.22646041 0.04729007 0.24176282 0.04376072 0.01473204 0.006432664
0.06767107 -0.019916974 0.2672321 0.072379224 0.2867784 -0.043708604 0.24914822 -0.058537964
0.09686049 -0.02113267 0.04752319 0.08933683 0.18952595 -0.1064804 0.013327549 0.15618905

fc3.bias f4 [16]
00000000: b69b 5b3e 7b4b 263e e1f9 3bbc 5199 2e3e
00000010: 20f9 30be 853a acbc d308 ab3c 0e62 cb3d
00000020: 2afc 2f3e 78ae 723e f5ad 183d b77b 473e
00000030: 8eb9 343c 0e11 29be cc00 833e de81 0e3e
0.21446118 0.16239731 -0.01147315 0.17050673 -0.17282534 -0.021023998 0.020878231 0.09930812
0.17186037 0.23699367 0.037275273 0.19480787 0.011030568 -0.16510412 0.25586545 0.13916728

out.weight f4 [1, 16]
00000000: a73c 60be dd4e 52be c7d7 9d3e 082b 80be
00000010: cd3c 7d3d f1f9 6dbe b604 84be 3dbe 98be
00000020: 45dd e33d 0298 c1be f336 bb3e 19f8 bf3e
00000030: 3401 95be 434a 603e 23ef a63e 475e d63d
-0.21898137 -0.20537896 0.30828688 -0.2503283 0.061825562 -0.23239876 -0.25784844 -0.2983264
0.11126188 -0.37811285 0.3656536 0.3749397 -0.2910248 0.21903329 0.32604322 0.10467201

batch_norm1.weight f4 [64]
00000000: b62d 843f eec9 743f 9f26 6a3f ac6a 813f
00000010: 45ac 703f e815 733f 3800 833f c6a6 733f
00000020: 9579 753f 9f2f 773f 0486 813f dcff 7e3f
00000030: ef47 6b3f cc3d 7e3f c0b8 833f 013b 803f
00000040: bd38 803f 32ee 7e3f 5c72 7f3f a107 6d3f
00000050: 14fa 6b3f 5459 8c3f ba4d 8f3f 1394 773f
00000060: b2d1 783f 8749 833f 4044 863f 9f91 7c3f
00000070: 12df 833f a356 863f 8001 593f 2508 6e3f
00000080: 21b2 7c3f d6e8 863f b5aa 8b3f 60c0 6c3f
00000090: ce5d 7e3f 24d7 823f ea4e 733f 34a0 7a3f
000000a0: 2d29 6b3f 13dd 773f c6e8 803f 0b5e 713f
000000b0: 5670 783f 18ab 843f 790e 7d3f 0c52 7a3f
000000c0: 5aa2 773f 6442 6b3f ad48 803f 7498 793f
000000d0: 31ef 8a3f bb4d 843f 8958 803f 6c01 7d3f
000000e0: 0fca 793f 4bc4 7c3f c60a 8d3f a924 833f
000000f0: a415 883f 2f9e 863f f67e 873f 1b53 843f
1.032645 0.9562062 0.9146518 1.0110679 0.9401286 0.949553 1.0234442 0.9517635
0.95888644 0.9655704 1.0119023 0.9960916 0.91906637 0.99313045 1.0290756 1.0018007
1.0017315 0.9958221 0.99783874 0.92589766 0.92178464 1.0964761 1.1195595 0.9671032
0.9719497 1.0256814 1.0489578 0.986597 1.0302451 1.049519 0.84767914 0.9298118
0.98709303 1.0539806 1.0911471 0.9248104 0.99361885 1.0221906 0.9504229 0.979007
0.91859704 0.9682171 1.0071037 0.94284123 0.9704641 1.0364714 0.9885021 0.97781444
0.96732104 0.9189818 1.0022179 0.9749825 1.0854245 1.0336221 1.0027019 0.98830295
0.9757394 0.9873702 1.1018913 1.0245563 1.0631604 1.0517024 1.058562 1.0337862

batch_norm1.bias f4 [64]
00000000: bf37 223d cba0 78bd 75a5 1abd fd33 f2bd
00000010: 3ae4 0dbe 87a2 06be 6529 00be e68a 9bbd
00000020: b69b e8bd 1cf9 8cbd 1739 c4bd 0694 ec3d
00000030: 9033 25bd 3e5c e43c 1617 2a3d b89b 34be
00000040: 4063 c93a b742 e6bd a449 c3bd cbda 60bd
00000050: 9352 d83c 5f5b 35ba c35f ba3d 91d0 a3bd
00000060: ece7 81bc 13f8 88bd cf05 f6bd a5b8 563d
00000070: af8a 51be 007e 823d 030c b9bd 0ede c5bd
00000080: 19bd 6b3c ac87 8fbd 3a07 b33c 4fc1 fbbd
00000090: 6d65 4abe b404 1b3d 57b0 86bd c8cf 59bd
000000a0: b801 f9bd be0f e1bd f81d 0abe c9e5 dfbd
000000b0: 28dd 34bb 1648 d93c 9b00 7b3d 6fa1 cf3c
000000c0: 26e1 27bd 5220 e0bd a816 5bbe 12c9 48bd
000000d0: 9f4f 453d 20b8 8bbc db27 7fbd 8d92 85bc
000000e0: 1dce 41bd 999b 4fbd 62ba c73c d5c1 72bc
000000f0: 855b 9fbc bfd0 f03d 4483 3a3d 49fb 0fbe
0.039603945 -0.06070022 -0.03775545 -0.11826322 -0.13856593 -0.13147937 -0.12515791 -0.07594852
-0.113578245 -0.06883451 -0.095812015 0.11551671 -0.040332377 0.027876016 0.041525923 -0.17637527
0.0015364662 -0.112431936 -0.0953553 -0.054896157 0.026406562 -0.00069182174 0.09100296 -0.07998765
-0.01585766 -0.066879414 -0.12012827 0.052422184 -0.2046306 0.06371689 -0.09035494 -0.09661494
0.014388346 -0.07008299 0.021854032 -0.1229273 -0.19765253 0.037846282 -0.06576603 -0.05317667
-0.12158531 -0.10989331 -0.13487995 -0.109325 -0.002759764 0.026523631 0.061279874 0.025345532
-0.040986203 -0.109436646 -0.21395361 -0.04901988 0.048171636 -0.017055571 -0.06229387 -0.016305232
-0.047315706 -0.0506855 0.024380866 -0.014816721 -0.01945282 0.11758565 0.04553534 -0.14060701

batch_norm1.running_mean f4 [64]
00000000: e721 f83c 0005 9ebb 242f 4bbc edc6 bf3b
00000010: 92e4 b1bb 5104 02bb a759 843c 1825 18bc
00000020: f55c 36bc b704 ba3b 0e68 0abc a946 a1bb
00000030: 97cf 9e3a 2a24 e2bb 1d85 b5bb 942f f43c
00000040: 8899 03bd c5b3 7f3c 5799 9bbc adee 3e3c
00000050: 6050 5b3a 22d9 ed3b c6fd 68bc 008f 5338
00000060: 5188 62bc bdfe 823c 678e 0a3d 48ce 5bbc
00000070: 4029 d23c cc2f b8bc b6ff 033d bc20 923c
00000080: 6c48 853b a073 a33a 3854 05bd d143 7c3c
00000090: 48a4 173c 32b8 3d3c c8e2 f3ba 48cb 373c
000000a0: 4e88 053c 0518 f03c 7397 9e3c 347d 543c
000000b0: ad9f 313c b641 05bd 6e83 e1bc ad62 bebc
000000c0: b283 6b3b 598a 863c 260f c13c d04e 8a3c
000000d0: 0270 623b 1637 803c a417 543c 7cd5 c3bc
000000e0: 4517 5ebc f1da 14bc 5ed7 f23c e5c7 f1bc
000000f0: 1f21 dc3c 3f9a 4dbc 32eb bebc 39ca 0e3d
0.030289603 -0.0048223734 -0.012401376 0.005852571 -0.005428859 -0.0019838999 0.01615603 -0.009286188
-0.011130561 0.0056768316 -0.00844766 -0.0049217534 0.001211631 -0.0069012837 -0.00553955 0.029807843
-0.03212884 0.015606825 -0.018994017 0.011653584 0.0008366164 0.0072585503 -0.014220661 5.04395e-05
-0.013826446 0.01599061 0.03382721 -0.0134158805 0.025654435 -0.022483729 0.032226287 0.017837875
0.0040674713 0.0012470372 -0.03255102 0.015397028 0.009255476 0.01157956 -0.0018607015 0.0112179
0.008150173 0.029308328 0.019359326 0.012969304 0.010841292 -0.03253337 -0.02752849 -0.023240412
0.003593665 0.016423391 0.023566794 0.016883284 0.0034551625 0.015651267 0.0129450895 -0.023905508
-0.013555353 -0.009085403 0.02964371 -0.029514262 0.026871262 -0.012548982 -0.02330551 0.034860823

batch_norm1.running_var f4 [64]
00000000: fdf0 ba3e 244a 063f a60f c23e 18ac b13e
00000010: e794 723e fbcb be3e 8925 983e 8706 8b3e
00000020: ff40 983e f26c c23d cf64 993d d95a 8b3e
00000030: 48fb 4d3e 72d8 6d3e eceb 123f eb2a 0a3f
00000040: f28e 103f f220 393e 2e57 a83e 131c ac3e
00000050: 02e8 9e3e ef42 853e 195c 693e e4f3 963e
00000060: dd28 993e 1efc f53d 4150 1a3f a497 ee3e
00000070: 4d06 743e eee2 d03e 1568 c63e 3cf1 d33e
00000080: 5bec 943e 94f0 b53e 1a32 b33e f057 b33e
00000090: 31be 073f 077e 1c3f b2ee c23e 7f4d f73e
000000a0: 16e2 c03e 1278 dc3e a875 3e3e a32f 173f
000000b0: ff77 193f 4e78 ce3e 94cb c63e c749 c53e
000000c0: ba23 923e c8fe 4d3e c9aa 933e 7295 893e
000000d0: abaa 7f3e e49c 833e c4a8 a23e b28a 013f
000000e0: 5093 d23e 28eb 133e bdda 823e 9a29 493f
000000f0: cd99 983e 3c44 0e3e da01 833e 330c d93e
0.36511984 0.5245688 0.37902564 0.3470161 0.23689614 0.37265 0.29716137 0.27153417
0.29737088 0.09493436 0.07489931 0.2721775 0.20115387 0.23227099 0.5739124 0.5397174
0.5646812 0.18078974 0.32879013 0.3361517 0.31036383 0.2602763 0.22789039 0.2948295
0.2991399 0.12010978 0.6027871 0.46600068 0.23830529 0.40798134 0.38751283 0.41394985
0.29086575 0.3553511 0.34999162 0.35028028 0.53024584 0.611298 0.38072735 0.48301312
0.3767249 0.43060356 0.1859957 0.5905706 0.59948725 0.4032616 0.38827193 0.3853285
0.28542882 0.20116723 0.28841236 0.2687183 0.24967448 0.25705636 0.31769383 0.5060226
0.41128016 0.14445174 0.2555751 0.78579104 0.2980484 0.13893217 0.2558735 0.4239212

batch_norm2.weight f4 [32]
00000000: 4b58 923f 0b53 933f 82cd 963f cc5d 9c3f
00000010: 7517 8f3f a287 8f3f 0a2f 853f a08f 963f
00000020: 0bdb 953f 6904 983f 2b2e 963f 6d19 973f
00000030: b2a8 a03f 4322 933f 66be 783f 53db 813f
00000040: be02 8e3f 8b22 973f 19ff 933f 7841 893f
00000050: a642 983f 475e 853f ffd1 903f f7b4 913f
00000060: 03c0 8c3f 7c20 8b3f fa02 943f 5fde 953f
00000070: 1957 933f 0d38 773f a920 783f 361a 953f
1.1433195 1.1509718 1.1781466 1.2216125 1.1179034 1.1213267 1.040498 1.1762581
1.1707472 1.1876346 1.1732839 1.1804634 1.2551482 1.1494831 0.97165525 1.0145057
1.1094587 1.1807417 1.1562225 1.0723104 1.189534 1.0419396 1.1314086 1.1383351
1.0996097 1.0869288 1.1563408 1.1708487 1.1510955 0.965699 0.96924835 1.1648624

batch_norm2.bias f4 [32]
00000000: b38f 283e 54c7 433e acf6 243e 058f 273e
00000010: 30c7 a03a dbde 223e f36b fdbc 326a 4e3e
00000020: 9d3b ea3d 703d 543e 1804 413e 821b 193e
00000030: 3c38 363e 9858 493e 5808 afbd 3fd0 8ebc
00000040: 9d42 133e aa87 5a3e e10a 453e af00 b33d
00000050: 0446 003e 33f9 013e ef53 4a3e 772b 3a3e
00000060: 82a7 353e 076f 2d3e f055 0f3e 1884 2f3e
00000070: ccf6 243e dc13 aebd 40ad 17bd b57d 503e
0.16461067 0.19119006 0.16109723 0.16363151 0.0012266394 0.15905325 -0.030935263 0.20157698
0.114371516 0.20726562 0.18849218 0.149519 0.17794889 0.19662702 -0.08546513 -0.017433284
0.1438088 0.21340814 0.19242431 0.08740365 0.12526709 0.12692718 0.1975858 0.18180643
0.1773968 0.16936885 0.13997626 0.17140234 0.1610977 -0.084998816 -0.03703046 0.20360453

batch_norm2.running_mean f4 [32]
00000000: e19d f7be b7e6 4bbf ce79 efbe 70cf c8be
00000010: 2a9f 733f f0a8 0dbf 7d93 173f 6ecd 3bbf
00000020: 7928 893d 5078 65bf b45e 05bf 4099 dcbe
00000030: 1bb7 0ebe f14f 76bf c305 5d3e ac61 f83e
00000040: 2667 4cbf c48a 62be ee13 13bf 562e b33d
00000050: 8ad3 bdbe ce3f 07bf fb58 3bbf 25fb 41bf
00000060: 614f e3be a306 86be f303 d1be dabe 28bf
00000070: 6739 99be bcdd 0a3f 1550 9c3c 926d 12bf
-0.4836264 -0.7964892 -0.46772617 -0.39220762 0.9516474 -0.55335903 0.59209424 -0.73360336
0.06697173 -0.8963671 -0.5209763 -0.4308567 -0.13937037 -0.9621573 0.21584229 0.48512018
-0.7984489 -0.22123247 -0.57452285 0.08749072 -0.37075454 -0.52831733 -0.7318265 -0.7577384
-0.443965 -0.26176938 -0.40823326 -0.65916216 -0.29926607 0.5424459 0.019081155 -0.5719844

batch_norm2.running_var f4 [32]
00000000: 834c 323f e974 933e d13b 163f ef56 263f
00000010: a5fe 693e f372 003f 4e23 f43e ca24 e63e
00000020: e734 2c3f ca99 953e dbe5 de3e 7cf8 ba3e
00000030: d723 543f dd68 c43e 48f6 a23e ee4b 8f3e
00000040: 5126 983e c65f 173f fe13 ce3e 0981 443e
00000050: 6aae 173f 50d0 ee3e 3a88 f53e 3521 e03e
00000060: e5bd 9b3e fa2d 6c3e 779b 363f 0df7 e73e
00000070: 401e dd3e bbe1 cd3e 99da cc3e 2475 df3e
0.69648 0.28800133 0.5868502 0.649764 0.22851045 0.501754 0.47683185 0.44949943
0.6726822 0.29218894 0.4353474 0.36517704 0.8286719 0.38361254 0.31828523 0.27987617
0.29716733 0.59130514 0.40249628 0.19189848 0.5925051 0.46643305 0.47955495 0.43775335
0.30418316 0.23064414 0.7133097 0.45305672 0.4318714 0.4021128 0.40010527 0.4364406
